p5_params.npz (npz, 195927 bytes, 4 tensors)

f1.weight f8 [32, 784]
0	0x3f7ca0d222f0a952	0.006989308210032812
1	0x3f83f28ac85286e5	0.009739956129411318
2	0x3f838f39b7cb97ff	0.009550524636733114
3	0xbf6f3f57221517fc	-0.0038143827265768575
4	0xbf6d7a1f6f31cb14	-0.0035982717468469125
5	0x3f72ccb6e1959e98	0.004589762096067006
6	0x3f6d8b7ec232c7d8	0.003606555533758087
7	0x3f82139f9e0bbd31	0.008826491366078134
8	0x3f3a4f6c61b70520	0.0004014625171429743
9	0x3f6bb679a629fdf0	0.0033829093893584725
10	0x3f7e198f94be0696	0.007348595488908002
11	0x3f8174cbd3a8cc8d	0.00852355231936588
12	0x3f7e7efbd5048548	0.007445319861547013
13	0xbf67ae9803ceeec6	-0.002890870002799281
14	0xbf80060dc0f46de8	-0.00782404656506848
15	0x3f765c36c89222aa	0.005459035871475374
16	0x3f78689ae42c6656	0.005959134143972719
17	0x3f83516e110296e9	0.009432659048182983
18	0xbf73b2f09f36d3a7	-0.0048093222898630055
19	0xbf7ae2ab717d7169	-0.00656382532164588
20	0x3f6df8c10efd4bf0	0.0036586542773107064
21	0x3f75f33b5d5b4fb4	0.005358917134532893
22	0x3f67e97b4e2aa094	0.002918949919450917
23	0xbf7db60f684060ec	-0.007253704246999098
24	0x3f56211ef769de18	0.0013506700903728238
25	0x3f71e4bd3208f1b4	0.004368533177111212
26	0xbf534ee682191500	-0.0011784792954057655
27	0xbf7d5f2a6ab1e12c	-0.007170835199865427
28	0xbf756066d0a9eff1	-0.005218888875443626
29	0xbf797f9148a017f8	-0.006225173487115036
30	0x3f738d402566a7fa	0.004773378916448573
31	0xbf78c4645e38c5fe	-0.006046669066152697
32	0x3f7507eda6afef77	0.005134514164634277
33	0x3f743c4c43e49bc8	0.004940317069020268
34	0xbf520983e93fa5fc	-0.0011009014315227486
35	0xbf6d9a7dd7d0cfa8	-0.003613706385772592
36	0x3f73ce7d14b19009	0.004835594746598567
37	0x3f827e14a3f31f72	0.009029542210910544
38	0xbf8232c6575a1511	-0.008885907688873236
39	0xbf7b4624418d0b11	-0.006658689141491051
40	0xbf4a13b99fe76f65	-0.0007958084459533775
41	0x3f866a0939d128bc	0.010944435193000472
42	0x3f71b58e2ca2c707	0.00432353531702901
43	0xbf797c863e72982b	-0.006222271337867051
44	0x3f5c9fd387d4fd79	0.001747089932294303
45	0xbf6709846adc799d	-0.0028121553686013116
46	0x3f4c45ce95531d7a	0.000862813826324179
47	0xbf73b8cb89bba81d	-0.004814906187428772
48	0x3f8291e3e19f15bf	0.009067325900001031
49	0xbf739d840bf35aac	-0.00478889065489933
50	0xbf82f8935e7e84fd	-0.009263182946428911
51	0xbf4f973c33aa18d6	-0.000964073558251478
52	0x3f754a200f5fa466	0.00519764445741897
53	0xbf71ebcf64b3b6df	-0.004375276689854351
54	0x3f80bc9b6a6fad13	0.008172239480663401
55	0xbf78f729673dd57e	-0.0060950867954167025
56	0x3f5bcdba3c3bf708	0.0016969984725955806
57	0x3f7bb5e938935d0a	0.006765280742192967
58	0xbf4ebe47c7991943	-0.0009382105337827701
59	0xbf392fc8b6f9fd3f	-0.00038431787741185006
60	0xbf71dfb48f44ab36	-0.0043637326346395635
61	0xbf626d55dde5fe6b	-0.0022494008146052755
62	0x3f7d2363917fbf0a	0.007113827647103008
63	0x3f52a605c3ec948d	0.0011382156660116078
64	0x3f7325f136dc387f	0.00467485641799048
65	0xbf72c51b88903f7c	-0.0045825076604301095
66	0x3f6d9034e999f072	0.0036088021705023504
67	0x3f83e7711c3bf203	0.009718784021509391
68	0x3f6191a9ca0dae89	0.0021446529576019707
69	0x3f740f1319461235	0.004897188763042727
70	0xbf4ebf8493dfdddf	-0.0009383580543262346
71	0x3f8392b89d0b22ff	0.009557192127787937
72	0x3f6eb72070a42858	0.0037494309991688395
73	0x3f531b34218d44b3	0.001166153821220467
74	0xbf4253d8c071a87b	-0.0005593117101743284
75	0x3f56333bc5235b4f	0.0013549884502503556
76	0x3f8633f97f33c443	0.010841321176913726
77	0x3f6966d10fc500ba	0.0031007846102114297
78	0xbf54e7c066589e1e	-0.001275957003039958
79	0xbf626569c1b9fab3	-0.002245623165264854
80	0x3f42e4fc441decbb	0.0005766135948158871
81	0x3f6469c046c0da97	0.00249183229427825
82	0xbf8462c58af45153	-0.009954016974497526
83	0x3f7ae1c193c86556	0.006562954102741733
84	0xbf7f2faadae08064	-0.007613818552300786
85	0xbf670b2cfc1fb938	-0.0028129461870697557
86	0xbf7cb0940dfe1a61	-0.007004335726270656
87	0x3f63411f278d3e42	0.0023503883825595493
88	0x3f7e623fe0bf1570	0.00741791679678748
89	0x3f319a8f064b921e	0.0002686118298654022
90	0x3f0f1c76a59b9c5d	5.933987695332856e-05
91	0x3f74da95ad46484d	0.005091271090707461
92	0x3f6db863335c0a9c	0.0036279618751689623
93	0x3f855772e23775a5	0.01042070153101344
94	0x3f6683145a919efd	0.0027480504546025784
95	0x3f8234d2d1314763	0.008889815339134527
96	0x3f73b2ed2eae6325	0.004809309476421918
97	0x3f8a46b4d99e96b3	0.012830174342364975
98	0xbf50d19a2e76159d	-0.001026535575733823
99	0x3f77e854af9956ec	0.005836802296092829
100	0xbf727868629df1d8	-0.004509361033225599
101	0xbf747f557f504d5e	-0.0050042476405168495
102	0xbf70b4268f846749	-0.004078055026434609
103	0xbf5d073880b2c6f7	-0.0017717410835697536
104	0x3f60f64c76e84bc5	0.0020705693671145575
105	0x3f694e0f2dac09d1	0.0030889793828247987
106	0x3f838e8532651f3a	0.009549179649766527
107	0xbf4d99b6d3e7c306	-0.0009033339227340904
108	0xbf80589370133a92	-0.00798144517685032
109	0xbf5fa700ecf64521	-0.001931906608522667
110	0xbf2f6a61e5dfc6ca	-0.00023968167346271322
111	0xbf8005c729bc33aa	-0.007823520623355968
112	0xbf55ad8c935539b8	-0.0013231156165890278
113	0xbf6f87132d384304	-0.003848588423132406
114	0xbf71a28acbf0504b	-0.004305402922018041
115	0x3f7719f44cd6d950	0.005639986321901283
116	0x3f53dc2b67b1ce23	0.0012121604802616335
117	0xbf78abb02e13422c	-0.006023109629680817
118	0x3f816a876d47bc6b	0.00850396921393167
119	0x3f8242354f4fe049	0.00891534469882073
120	0x3f6ed57a7ea7adb3	0.003763903853941841
121	0x3f88470feb622625	0.011854290362197048
122	0x3f81863141422892	0.008556732944516452
123	0x3f6db7853d5ae282	0.0036275484406725353
124	0xbf6fc58d6006de66	-0.0038783799393192096
125	0xbf8eb05e03377c9a	-0.014984831307570712
126	0xbf875fc22fa9dd23	-0.011413113669944302
127	0xbf8ea26984acdfee	-0.014958214150837503
128	0xbf8605571639660e	-0.010752373090485736
129	0xbf442ee0ea00b3c4	-0.0006159399235962028
130	0x3f67586c78f80b62	0.0028497809032627533
131	0xbf735d32d740b7bb	-0.004727552983281254
132	0x3f6bcb6da1839bc7	0.003392900584106215
133	0x3f64294f78b44afd	0.002461104600692264
134	0xbf860e77f846906a	-0.010769784225722574
135	0x3f5424f27c81cba5	0.00122951202686459
136	0x3f5a1fe0e5ecb599	0.0015945144911698515
137	0xbf87afbed12b12cb	-0.011565676458653048
138	0xbf6f446299a4442a	-0.00381678827137268
139	0xbf5f720998fa98ea	-0.0019192785002047305
140	0xbf33dc7cc749c7e0	-0.0003030590662894666
141	0xbf6552c146410faa	-0.002602937211152641
142	0x3f6deef0b00e7dd6	0.003653974621968574
143	0x3f7529d674782719	0.005166852678948585
144	0xbf0b6e3d381c9505	-5.23197586644129e-05
145	0xbf8920193ad7aa6d	-0.012268254383305444
146	0xbf682899085fe761	-0.002949046031969369
147	0xbf7f5cea213a5d3b	-0.007656969613570037
148	0x3f66bbadcce0c557	0.0027750391518785267
149	0xbf6dd3f3192bef34	-0.0036411045087997532
150	0xbf69047c2125ba42	-0.0030538963703102004
151	0xbf7252a722d1f70a	-0.004473355174125402
152	0x3f624efbce36efa5	0.0022349279476809474
153	0x3f5460ad2199fa43	0.0012437525496406122
154	0x3f8b093d71b3f2ec	0.01320121768230239
155	0x3f782dd336094205	0.005903077166820929
156	0xbf7dfab50e2982f4	-0.007319171187732055
157	0x3f68c6bdd2334fa4	0.0030244548266668714
158	0x3f82c475f1c01c53	0.009163781585824681
159	0xbf8b139c7bae4b78	-0.013220999264182728
160	0xbf784a3dbe345e41	-0.005930176909962948
161	0xbf7466c5cdcc5954	-0.004980824157220749
162	0xbf7d5752c082d88c	-0.007163356065737269
163	0xbf3345e1ba71ceb2	-0.0002940822691421637
164	0xbf853c96866efe0d	-0.010369468667589943
165	0xbf828fab40c20f9a	-0.009063089288481586
166	0x3efbadbc9b8dd3b8	2.6396426366887444e-05
167	0x3f3fab2e73208ac4	0.0004832256701112032
168	0xbf7963849d4ebe40	-0.006198423409770337
169	0xbf7d5e7a340d52ab	-0.007170178753615512
170	0x3f7b6ff57a838d57	0.006698569203055746
171	0x3f794012b379cb65	0.0061646204481914145
172	0x3f625fe6625ac0d6	0.002242994279036829
173	0x3f5de03e04e0c615	0.0018234830527145186
174	0xbf8b4e6a884aa1a8	-0.013333160671508207
175	0xbf88b8a6904d0db5	-0.012070943144528149
176	0xbf91fdaae1ad6e58	-0.017569227241763435
177	0xbf969322390daa24	-0.02204564545847111
178	0xbf8592e01c4fa7a0	-0.01053404890440729
179	0xbf7184a8ed093d94	-0.00427690493286494
180	0xbf88ef0261a8b641	-0.012174624066655261
181	0xbf1fa37e3833ce0b	-0.00012069185145318504
182	0x3f88172c11f7ea4c	0.011762947367050768
183	0x3f93a4c61518c1cc	0.019183249509468855
184	0xbf51eab615d2c544	-0.0010935571838611305
185	0xbf86407041de23d2	-0.01086509419453022
186	0xbf8725b56d7370b1	-0.011302392389943657
187	0xbf812c0092a2e764	-0.008384708857523022
188	0xbf83066c0989ebcd	-0.00928959278211563
189	0xbf85aded427c9c56	-0.010585645286097439
190	0x3f69ea6c4e039c5f	0.003163539440822968
191	0x3f6ea770405e355f	0.003741950265015489
192	0x3f62303b20f6060f	0.0022202639444806114
193	0x3f49551ea2abb971	0.0007730865084718941
194	0xbf659bb55d49c161	-0.0026377241395538075
195	0xbf66df58a133fd6b	-0.0027920466469592473
196	0x3f7bdde031dd41d6	0.006803394089573497
197	0xbf5f5f7b0e3c5ebe	-0.00191485421323094
198	0xbf60466618c6cfbd	-0.001986693771152985
199	0xbf3cf9e5e0a9d159	-0.0004421411728465961
200	0x3f71dcef50e00cf7	0.00436109049587973
201	0xbf87bde183b5e124	-0.01159263785551496
202	0xbf8d10a6d6543053	-0.014191916862294962
203	0xbf7d82cef4336293	-0.007204826749522514
204	0xbf89397e917d83a0	-0.012316693129550249
205	0xbf80f4a782d4d335	-0.0082791411210593
206	0xbf980627ecbca533	-0.023460983108781263
207	0xbf7ed72f70eb09dd	-0.0075294354598462706
208	0xbf55b58a3c8ce685	-0.0013250207868637242
209	0x3f7bc70f47f91a41	0.006781634990665143
210	0x3f89013beddbadb1	0.012209385105470401
211	0x3f8dfa3cfc546016	0.01463744778679658
212	0xbf7cf8107aa3a138	-0.007072510119748458
213	0x3f6659250691ffa7	0.0027280543477558763
214	0xbf73e97bc1754513	-0.004861339016615024
215	0xbf8ba2d88ab6d8ac	-0.01349419759104039
216	0xbf611a9b594518d7	-0.0020878824381354954
217	0xbf8e0c41ba5c87b8	-0.014671815395164475
218	0xbf86e3918cd53ca3	-0.01117624007261348
219	0xbf8caaf60d9ad1cc	-0.013997957506355706
220	0xbf7cd4652cdcb90c	-0.0070384933622291805
221	0x3f225d95c5f0746c	0.00014011815343986948
222	0x3f66f8fde3b45a28	0.002804275396225426
223	0xbf78e649e86a8fd4	-0.006078995421066897
224	0xbf75ffced69216db	-0.00537091060789915
225	0xbf7a273195bc8969	-0.006385034266516911
226	0x3f70cedd2ac82384	0.004103530820892657
227	0x3f4536cae339071c	0.0006474009191565796
228	0xbf82a4672cac7a59	-0.009102636385759743
229	0xbf8888d70c235cef	-0.011979751642157114
230	0xbf82ea0adb942d99	-0.009235462976468866
231	0x3f705496c1b7b643	0.003986920255085349
232	0x3f401b490b3f903a	0.000491533914552373
233	0xbf7d0e6821fdbbf5	-0.00709381749025705
234	0xbf6b82044b7eac8a	-0.0033578952679441153
235	0xbf818ce013603fbd	-0.008569479552562482
236	0x3f581f16a733cd79	0.0014722558233274104
237	0x3f80cacbe3c1f4fe	0.008199303520309172
238	0x3f832633c0a5817c	0.009350208584408597
239	0x3f72cb40835ad961	0.004588367466274641
240	0x3f6c466d14b7e7e5	0.0034515505301415555
241	0xbf0b37947fde5ddb	-5.1912516922654916e-05
242	0xbf8a44448d20c1e6	-0.012825522953876022
243	0xbf77d1544504255f	-0.0058148662358317995
244	0x3f445e43148762da	0.0006215884723657875
245	0xbf58e741fe482367	-0.0015199799028115747
246	0xbf785c6653daece2	-0.005947494236973246
247	0xbf7a577fe7ace8d9	-0.006431102398716437
248	0xbf8c02c299c655b8	-0.013677139585335549
249	0xbf83b28d92ea9b80	-0.009617906614335814
250	0x3f52137e8214a2ea	0.0011032805853778368
251	0xbf81f1c74d0344f5	-0.008761937177413229
252	0x3f7dd11dedb074b7	0.007279507549381828
253	0x3f81f14f71959b72	0.008761044172116181
254	0x3f7c861d8d31a483	0.0069638399464589966
255	0x3f8134c2495a4091	0.008401410926382165

f1.bias f8 [32]
0	0xbf5cb2368eb2c9c5	-0.0017514736926328306
1	0xbf6861726b7ca294	-0.002976153827962522
2	0x3f7d97b32826987a	0.007224750358011284
3	0x3f72c4b79e699759	0.0045821354493450145
4	0x3f83366351bdbfab	0.009381080562633167
5	0x3f46aec296ff24df	0.0006922197480828915
6	0x3f6287af8f596a2d	0.002261965647261796
7	0x3f511e9312085c09	0.0010448871836439297
8	0xbf4b873fc115aa45	-0.0008400975513443506
9	0xbf62c1d8a249dd86	-0.0022896987086899493
10	0xbf78a01069d7480e	-0.006012024035458209
11	0xbf6215d75fd27785	-0.002207680371227152
12	0xbf82ae7a630db76b	-0.009121853015780798
13	0xbf72bb96706cac66	-0.004573428776704613
14	0x3f7cb50c07a23a2f	0.007008597365838073
15	0xbf8420999aa25134	-0.009827804595524549
16	0xbf552f86c39d4bd4	-0.0012930694633339528
17	0x3f79ce4a068b9923	0.0063002483009085035
18	0x3f7e0f6c0706ad53	0.0073389262983412805
19	0xbf81d3bd2d2f6d22	-0.008704641286320373
20	0xbf718389af7e5516	-0.004275834878986437
21	0xbf4260c5d5093a01	-0.0005608526208307764
22	0xbf56bcf06626dde2	-0.0013878200194151692
23	0xbf50d92034039d28	-0.0010283293232136812
24	0x3f80625ad3a7cb14	0.008000096878253461
25	0x3f659159022937a0	0.0026327837415811156
26	0x3f83cb16869f713d	0.009664703353273846
27	0xbf6374299b33b13e	-0.002374726545545296
28	0xbf7e2b9d0905a113	-0.007365811747469547
29	0xbf4b868009ae7148	-0.0008400082764299733
30	0xbf7690e2b7231822	-0.005509267432165317
31	0xbf771e5b5b932122	-0.005644184938496973

f2.weight f8 [10, 32]
0	0x3f9e81369b7ecfcd	0.02978978466099118
1	0xbf9b4906d5e71ecc	-0.026645762258140235
2	0xbf8010a336167b3e	-0.007844233596924984
3	0xbf9cab84ddffe6db	-0.027998043107777853
4	0x3f8605e1afce8d75	0.010753405740451008
5	0x3f80cd4cb5ca4972	0.008204078004642599
6	0xbfacc42ec7e0900d	-0.05618425550372317
7	0xbfa51cc4434f02d0	-0.04123509713781959
8	0xbf8b6f3868651e70	-0.01339572971904987
9	0x3f9d03f80a135769	0.028335452666247294
10	0xbf98029195a78dfa	-0.02344729877394334
11	0xbf7e85c902f5dd23	-0.007451806260511592
12	0xbf773439440ddeda	-0.00566503877131882
13	0x3fa37825e6525ce0	0.03802603184265663
14	0xbfab42236fcf3792	-0.053238971136678206
15	0xbf5182bd00ff4e93	-0.0010687680951279351
16	0xbfa75a9dcd89e0eb	-0.045613223400268264
17	0x3fa08e3b9bb66ff9	0.03233515048779618
18	0x3f86cecdb4c60cab	0.011136633948586846
19	0xbf4a3ba09c0ee9b6	-0.000800565169007775
20	0xbf9b411016e6e2e1	-0.02661538257391072
21	0xbf97ded8e8e4ab63	-0.023311032499957373
22	0x3fa23a82a148d384	0.03560264796070725
23	0xbf62ce9c04a88b37	-0.0022957846861272574
24	0xbfa6539de6dde9e4	-0.043606695587147276
25	0xbf8880d40153f848	-0.011964470186736645
26	0x3f97dc6d13f497f1	0.023301796286567315
27	0xbfa127d196f89d09	-0.033506917647452346
28	0x3faccfb741fb9d6f	0.05627224617438286
29	0x3f7bcc255d41e9e6	0.0067864856283627924
30	0xbf81ea754cdc31fe	-0.008747974784932385
31	0x3fa69ce59639d9cf	0.04416577776730756
32	0xbf80c03ebc96b171	-0.00817917836214896
33	0xbfa3f009edf422c9	-0.03894072560985291
34	0xbf973a925442324f	-0.022684370415435414
35	0x3f9a88c792c7b471	0.025912397702928695
36	0xbf3618621ba7b1f2	-0.0003371467134048171
37	0xbfa6460b76d89cf4	-0.04350314927824597
38	0xbf93821684f9e9df	-0.01905093371031252
39	0x3fad96b26245897b	0.05779035043339583
40	0x3f88c8146674fe81	0.01210037172006584
41	0xbf963cb0da7b1bf3	-0.021715892157569482
42	0xbf8b531eb6072de8	-0.013342132501654683
43	0x3fa1ef591067d3ba	0.03502920460952148
44	0xbfa24b6696447caf	-0.03573151192016987
45	0xbfae81a7bbcc8cfc	-0.059582940745054075
46	0xbf97f9fe311a9097	-0.023414584872299384
47	0xbfa20ebb933bc9eb	-0.03526865169796508
48	0x3fadd4d83ff4b368	0.05826450138770306
49	0x3f81208357e55060	0.008362794990411426
50	0x3fa26d02a0275635	0.0359879322528908
51	0x3f823adf00482db5	0.00890135020838199
52	0x3fa54820dc16b9f6	0.04156592070227198
53	0x3f8285e150d644c0	0.009044418601464321
54	0xbfa8ed8ed4844fec	-0.04868742317390215
55	0x3f8ed8dfee5bbf54	0.015062093221302732
56	0x3f9ed9d466154ac3	0.030127829294836383
57	0x3fb90ac5f5d2959b	0.09782063724067884
58	0xbfa2602f6d245cef	-0.03589008528995829
59	0xbf7773ae56260173	-0.0057255563755237325
60	0xbfa13cfa0f368844	-0.033668341023500165
61	0x3f8db13d9b24e726	0.014498215958713322
62	0x3f72a13be9d88a93	0.004548296009974212
63	0x3fa009c814e92752	0.031324627449591205
64	0x3fa84f327e30ae96	0.047479226974556685
65	0xbf95becebc925edf	-0.021235685595995753
66	0xbf9b62131e6f80ea	-0.026741312725676737
67	0x3f82587c0b40dd9b	0.008957833379198024
68	0x3f7b9495dbf3c011	0.006733498942807629
69	0x3f925adefd7a04fe	0.017924770565973518
70	0xbf9a92dacc624993	-0.025950831150632302
71	0x3fa64eb0641a4e51	0.043569099635672466
72	0x3f90ef0e0b0a22b8	0.016536921905329932
73	0x3fa2c4a1040ed52d	0.036656409974435845
74	0x3f69c36041ce63f5	0.00314492035108715
75	0xbf541f745479b02b	-0.0012282024416903163
76	0x3f7543b5a8c478b5	0.005191526037633111
77	0xbfb19659656a7d5b	-0.06870039678550681
78	0xbfa25fe0396a7ba5	-0.035887724884779794
79	0xbfa34d9e748fd5b2	-0.03770156071542931
80	0x3f7312480873bd38	0.004656106356591132
81	0xbfada847128113b7	-0.05792448140031275
82	0x3fa02e678a332381	0.03160403787621303
83	0x3fb127ad45049669	0.0670116704464704
84	0xbfab8efdd303ca67	-0.05382531357635827
85	0x3facc002564308cb	0.056152413396846144
86	0x3fac75ace86a528d	0.055585292216311456
87	0xbf8dda52ddb6cf3e	-0.014576575652291642
88	0x3fa552d4bc0ed05e	0.04164757533672579
89	0xbf9bc9f88745ec7e	-0.027137645012299753
90	0x3f972327a5625090	0.02259504267620166
91	0xbf7779100d6b12a1	-0.005730688767191212
92	0x3fa083aaef882faa	0.03225454496359188
93	0x3f9f1ecc8f696c72	0.03039092660251836
94	0xbf748b195721ed2b	-0.00501546763018305
95	0x3f93f14ca3df04a3	0.019475171567823534
96	0xbf925dbd6bfef185	-0.017935714451355906
97	0x3fb1a37e028524e2	0.06890094338918432
98	0x3f6b9ae2ef19a437	0.0033697540573496515
99	0xbf6c431afa0c11fd	-0.0034499670877059505
100	0xbf97c3bec0ade90a	-0.023207645902837228
101	0x3fa3208cc6439d89	0.03735771103111591
102	0x3fa449cca64881c9	0.03962554483246412
103	0x3fa7c16046290d20	0.04639721733522095
104	0xbf2e1ff0a24c7679	-0.00022983372141365305
105	0x3fa47a383911d8c6	0.03999496170665533
106	0xbf956527efbc7598	-0.02089369202359634
107	0x3fabe8a415d921e0	0.05450928465558369
108	0xbfab1b5c77f3cb5e	-0.052943124430291574
109	0x3f829e9dfcf98f31	0.00909160068767498
110	0x3fab5ccf6cc245b8	0.05344246103880884
111	0x3f956e84127de474	0.02092939722885885
112	0x3f8d3c4a7622da69	0.014275151949147262
113	0x3fa1e35fec84afc2	0.03493785631357539
114	0xbf8f73449dd6bffe	-0.015356575075969655
115	0xbf8cbfe14675d6a8	-0.014037857020166314
116	0xbfb5541d893865d5	-0.08331474876504015
117	0xbf76692f9f1c4397	-0.005471406957227829
118	0x3fa773611c92c344	0.04580214952273434
119	0xbfabb50fb10a6b2d	-0.054115763055241885
120	0x3f9bbae109320665	0.027080074487918177
121	0xbf91107ddf5edde6	-0.016664473303277826
122	0x3f76013304996ae8	0.00537223748105007
123	0xbf9982f18a9f0821	-0.024913572393195808
124	0xbfa8f46918220968	-0.04873970431892155
125	0x3f9ba424905dd465	0.026993342696603046
126	0x3f70ffe06fa148bf	0.004150273040140983
127	0xbfa254de17f4c898	-0.03580373804506215
128	0x3f9c27617d92b781	0.027493975915312333
129	0xbfae81ef823e81e5	-0.05958507981199882
130	0xbfad89067b7b8a3d	-0.057686045239979646
131	0xbf96673371b64802	-0.02187805539649191
132	0xbf7aad06c27e6952	-0.006512667088737283
133	0x3f5b1ee7494b88b7	0.0016553171782836393
134	0xbf825d8464527014	-0.008967432319245495
135	0xbfa7aa499dfa4415	-0.046221066030860104
136	0x3fa9d02af3f5ba1e	0.0504163191607072
137	0xbfb76552405a70f3	-0.09138979025960108
138	0x3fa1c03f805193d2	0.034669861234568736
139	0x3f9cb44875b6cd5e	0.028031475243279196
140	0x3fb14f95b54b8c50	0.06762061763906613
141	0x3f7c5bd41d3f3886	0.00692351204993547
142	0x3fae91b55b064bea	0.059705417024041044
143	0xbf93a2e5144d9fef	-0.019176082004747682
144	0xbf902b305b78a9b7	-0.0157897525624919
145	0xbfa30dde4eee00c5	-0.03721518243310266
146	0x3fa09502163e6a72	0.032386841979321526
147	0xbfb03558dcc3beb7	-0.06331401242982336
148	0x3fa87c8a15aa1fca	0.04782516016444978
149	0x3fa75a8eb90f3738	0.04561277398134539
150	0x3f6b932bdb6228db	0.003366075189721857
151	0x3f93d76c1f7fb64b	0.019376458570994164
152	0x3f46979f562419a0	0.0006894615183064452
153	0xbf928182e1e3f40c	-0.018072171246775112
154	0xbfa301d2d736682a	-0.03712328793626825
155	0xbfa4cccb1a9467ac	-0.040624949450104836
156	0xbf94301eccfe8448	-0.019714814435819045
157	0xbfb90c023c910ee2	-0.09783948877980778
158	0xbf730773bb64b9d2	-0.004645778730532917
159	0xbf7aabeb0a266596	-0.006511610149027366
160	0xbf7e5bafbfa91cc4	-0.007411657827623933
161	0x3fa964759514702e	0.04959456868002153
162	0x3fb377335d4f1b4a	0.07603760746051794
163	0x3fb0260380841a71	0.06308004272077895
164	0xbf938b2fccbe9f47	-0.019085642692203277
165	0xbf63eb013e425eca	-0.002431394985318612
166	0x3fb37dc1396f54d1	0.07613761570185608
167	0xbf7ed28d9055842c	-0.007525017722714227
168	0xbf8018552b037f7b	-0.007858910918400621
169	0x3fa02cbc6f053e1a	0.03159130912046866
170	0xbf46301212766e47	-0.0006771171801349195
171	0xbfa0d87e9e70600e	-0.03290172275609403
172	0xbfb49ddbf9828b87	-0.08053374139357859
173	0x3fa2e15f66796731	0.03687570691972864
174	0x3fa2431c8db53aad	0.03566827039559448
175	0xbf9b5cb797106e46	-0.026720875354028693
176	0xbf926c7ba7339779	-0.017991954879924308
177	0x3fa65698d7e13810	0.04362943301440236
178	0xbfba3fd7d62c6aa8	-0.10253666857571864
179	0xbf649336e78b8a54	-0.002511603579806102
180	0x3fa5bfe3ecc5c790	0.04247963204660643
181	0x3f8f1d46bc13421c	0.015192558874702881
182	0xbf8b18c1ff099f07	-0.013230815501813277
183	0x3fad8b64fb059051	0.05770412029485839
184	0xbf91bbde7576f9de	-0.017318225783805256
185	0x3fa2cfa7a1e28e6f	0.03674053050170022
186	0xbf9894200ba283cf	-0.024002552709706578
187	0x3fb727535e84109f	0.09044381196514671
188	0xbf79e44856f236c3	-0.006321222855275091
189	0x3f8215a31470f1e5	0.008830331860843319
190	0x3f7d68d7e6f3cd9f	0.00718006455211953
191	0xbf4f862872479197	-0.0009620378009996153
192	0x3fa82f9a68df5d2f	0.04723818330938411
193	0xbfa801ca621f4571	-0.046888660886575624
194	0x3f9078ef8ab5b249	0.01608633312337052
195	0x3f806d2a54810a8e	0.008020716384753681
196	0x3f48e3fef5531809	0.000759601107937825
197	0xbfb5a84bad525d1a	-0.08459923726546884
198	0xbf9717dd1e7c222c	-0.02255197046818773
199	0xbfac18fc708ee96c	-0.05487812875749651
200	0xbf94ffa6d17fec2a	-0.020506483589979897
201	0xbfb26690942f18c9	-0.07187751405499222
202	0x3fadd27713a67753	0.05824634661551777
203	0x3f7070e1299c61c3	0.004013900319272459
204	0x3f801db3cd352ba1	0.007869152736608433
205	0xbf5c3d558e98bbe3	-0.001723607589507508
206	0xbfa3a933b167c713	-0.03840028324692759
207	0x3f7716d83dfa18c4	0.005637020774548588
208	0xbf983e7373b66db5	-0.023675731599366496
209	0x3fa86113a63cb5ad	0.0476156368662076
210	0xbfa520fdfb33903f	-0.04126733485625821
211	0x3f95d43fc99db36c	0.02131747882906458
212	0x3f870b5dcb26bd30	0.01125214840143815
213	0x3f641f95bdab0013	0.002456467116047642
214	0xbf6aa84730406b1a	-0.003254069366460566
215	0xbfb26535092b9fb6	-0.07185679887663707
216	0xbfa08f185e0ab09d	-0.03234172962160751
217	0x3f95ee921b85cbab	0.02141788762078149
218	0x3f7c21c75eb2eeab	0.006868151463261955
219	0x3fa85339785d14b1	0.04750995249063673
220	0x3f5db5ac7745ad16	0.001813333915459852
221	0x3fb1c1f3e5a802d9	0.06936573368876554
222	0x3f9012adbd433237	0.015696253468194334
223	0x3fa0fa551b708a6c	0.03315988502460673
224	0xbfa8f14c3133bbc0	-0.04871595478640911
225	0x3f93038e88ca696a	0.018568255518951395
226	0x3f721f2665891d99	0.004424238192377494
227	0xbf8a383560a047f4	-0.012802521716398708
228	0xbf53011e726faf7a	-0.0011599347433230698
229	0x3fa6c12694a23615	0.04444237293601475
230	0xbfa309a666735759	-0.03718299866311154
231	0x3fb82a3efaa0f7ce	0.09439462298266152
232	0x3f9d54497d910689	0.028641842164012252
233	0x3f9e70b025f36c72	0.029726745907151693
234	0xbf920f4d16ef7eba	-0.017636494183419706
235	0x3f93dd44c0188c41	0.01939876005611674
236	0x3fa8073231c1b36e	0.046929901670273874
237	0x3f9fcf0fa7ebb864	0.03106331312567824
238	0xbfa9af5ff21718d7	-0.05016612844660678
239	0xbf88b186df7eaf48	-0.012057355590364374
240	0xbfaca2d078c08fd4	-0.05592967485452474
241	0xbfa9541dd7320d7c	-0.04946988346002976
242	0x3fa12781bb0f0cff	0.03350453766281624
243	0xbf7f12a43d47d181	-0.007586137352053491
244	0x3f9ceda59a6305b9	0.028250300930044967
245	0xbfb16f0bf04b7230	-0.06810068718500228
246	0xbf9dd2cc9b7df5f5	-0.0291244478134924
247	0x3fab40f1870bbd3d	0.05322985433110226
248	0x3fa42ed3f00f1b9c	0.0394197683850088
249	0xbf4d8f359fa60db3	-0.0009020816644781854
250	0xbf9338f01d1231b7	-0.018771888517720572
251	0xbf67db48ed08130a	-0.002912180360228671
252	0xbfa19ee198250f0b	-0.03441529257045602
253	0x3f67f9c7f79835a8	0.0029267221077648627
254	0x3f7939ae33e43adf	0.006158524016668137
255	0x3f9634be584380e9	0.021685575616062023

f2.bias f8 [10]
0	0xbf6ddaeaee74fe91	-0.0036444271569562943
1	0xbf76934aae49c5eb	-0.005511562082220571
2	0x3f76a950ed32046a	0.005532566184343593
3	0xbf8462d453d5373b	-0.009954127128959924
4	0x3f7c050d69859824	0.006840755835900967
5	0x3f847ebee61a2e55	0.010007373234905229
6	0xbf81220107e6e912	-0.008365638784074512
7	0x3f7a3068d1cca7b1	0.006393823100362115
8	0x3f76f97b966ab772	0.005609019054345287
9	0xbf80eb48fb7004f3	-0.008261270688310484
