my449/p6_params.npz (npz, 25096 bytes, 6 tensors)

c1.weight f8 [8, 1, 5, 5]
000000 b1 41 94 e7 44 1e b7 3f 8b 5d b7 93 0b 34 a4 3f
       0.09030562070643701 0.039459573537608504
000010 e4 95 a8 74 ba ca 45 3f 91 9c d2 62 24 8b a5 bf
       0.00066503624231434 -0.04207719522792631
000020 58 00 e5 18 b2 e5 95 bf 0a 94 32 c9 c9 32 a6 3f
       -0.02138403202957337 0.04335623341584245
000030 46 b1 b1 dd 4d 9c 73 3f ae f5 01 6d 7d 4e a7 bf
       0.00478773514178627 -0.0455207057538972
000040 76 49 db 66 68 68 a6 bf 7d 18 83 ec a1 50 91 bf
       -0.04376531844686131 -0.016909151135017886
000050 f5 51 8e 54 a3 3c a4 3f c2 fa 26 53 97 de 91 bf
       0.03952513129403094 -0.017450680208407794
000060 52 2f 91 49 bb f3 a7 bf 31 fe d4 cd 15 ca 9f bf
       -0.046781399469721166 -0.031044331253040795
000070 97 59 7e a0 f8 92 8b bf 0c b9 6d af d2 42 9e 3f
       -0.013463919065355863 0.029551784474670703
000080 98 18 f8 a8 02 80 92 bf b8 e2 45 05 cf 8a 9c bf
       -0.018066445887619936 -0.02787326306995183
000090 bb 27 94 70 88 5b 9a bf fc 10 b2 f7 99 e8 90 bf
       -0.025739795562038852 -0.016512304061067504
0000a0 15 10 86 4e f6 c2 a4 3f 05 c4 81 14 57 e7 8b bf
       0.04054994305172969 -0.013624840081520881
0000b0 a2 e9 95 6e 13 39 a2 bf c6 0e c7 27 eb d2 9b bf
       -0.03559170460626439 -0.027171778014021063
0000c0 53 65 4b 04 f5 f3 7c bf 12 37 30 26 8f a5 a2 3f
       -0.007068593117503258 0.03641936627546562
0000d0 91 38 49 4e 08 5d 97 3f f4 3d 42 bc fd 0e 59 3f
       0.022815828111838746 0.0015294530758501708
0000e0 15 00 28 63 8e 56 9b bf 4a 1b 34 2c c4 92 a8 bf
       -0.026697373201386727 -0.047994738002719986
0000f0 33 54 c1 0f 0c df 88 3f b5 e4 d7 d2 d6 06 9c 3f
       0.012144178610620759 0.027369839304786498
000100 60 e6 d0 37 ed d1 a8 3f e6 e8 26 6c e0 94 97 3f
       0.04847661310527651 0.023028856850694356
000110 74 10 7d 60 63 dd 9c bf ce 24 7c 12 7c 82 98 bf
       -0.028188278927033086 -0.02393525946448421
000120 78 a5 e0 81 c3 87 8f 3f 62 44 c4 45 ce a3 a7 3f
       0.015395667458579551 0.046171613708914774
000130 6f 34 37 d4 8e 09 a3 3f 93 f8 32 94 1c 4b 67 3f
       0.037182296185712775 0.0028434332067198225
000140 f1 73 3d 65 7e 9c a6 bf 86 d7 18 53 e7 c9 97 bf
       -0.044162702425388896 -0.02323113865551065
000150 6b 6c cf 35 af 0a 80 bf 52 10 c7 b5 02 c5 8b 3f
       -0.007832878904016924 0.013559361622249497
000160 3e 52 69 85 e2 f6 a3 3f 6c 9b 65 c3 6f 40 b1 bf
       0.038992956910679485 -0.06738947410995672
000170 3c 67 1e ff c4 b4 a7 bf c8 1c f9 0c 47 47 a1 bf
       -0.046301036970545856 -0.033746929486875354
000180 17 98 5c 01 99 1f 90 bf d9 59 a6 93 0a 14 86 3f
       -0.015745535572158156 0.010780413275637212
000190 0a 22 54 c8 e6 e1 9c bf 93 9f ba ad e9 3c 92 bf
       -0.028205495812502014 -0.01781048891885424
0001a0 31 00 de 75 87 91 86 3f f7 b1 7b de 3a fd 92 3f
       0.011019762310525124 0.018544120625778118
0001b0 16 f4 95 ff fd 93 75 3f cd 92 15 8c 4c c1 98 bf
       0.00526808946721948 -0.024174877214494118
0001c0 3c 31 39 22 0d de 91 bf a4 1f db 53 47 70 7a 3f
       -0.01744862100012877 0.006454733489313389
0001d0 3c 38 22 a8 62 13 99 3f 69 9b 88 74 95 d1 81 3f
       0.024488011848511557 0.008700530642341513
0001e0 b0 f3 b3 f2 2c a7 92 bf 14 4a 51 65 ad a4 96 bf
       -0.01821584922162217 -0.02211256914990585
0001f0 6e c3 41 d6 7b fa 5d 3f 6e 58 91 4b 17 05 99 3f
       0.0018297395081640871 0.024433483111657876
000200 29 fd f9 73 2c ea 91 3f c6 10 e6 03 2c d1 8b bf
       0.01749486406197068 -0.01358255755327099
000210 58 3f 40 44 b4 ba 98 bf 40 e8 fd 39 0e 62 89 bf
       -0.02414971987315026 -0.012394057411928228
000220 f0 b7 de fd 1f 81 8b 3f 3a 2c 28 3d 5a 6e 9e 3f
       0.013429880080220585 0.02971783636352774
000230 b2 bd 2d e6 28 ec 9b bf 20 03 60 89 4c 6c 9a bf
       -0.027268065499297563 -0.025803752789218426
000240 2b 88 30 2e 83 2d 95 bf b4 94 a6 1e ef 80 87 3f
       -0.0206814286176568 0.011476390955815631
000250 bf 55 b3 46 dc 43 a5 3f 0d 6a 35 dc 57 43 b4 bf
       0.04153335917514366 -0.07915257574260455
000260 e2 a9 7d 13 03 e8 95 bf 5b b1 f8 65 1c 5c 97 bf
       -0.021392868103626735 -0.022812312816470875
000270 f5 17 67 a7 1e c6 a1 bf 0b 81 fd 71 83 98 a6 bf
       -0.03471465867509941 -0.04413233534319446
000280 14 64 36 37 d1 24 b5 bf 95 0b c2 25 7f 0a a8 bf
       -0.08259303663216172 -0.046955083235864205
000290 6d e6 02 82 51 05 b2 bf 28 94 f9 d9 9c b5 b1 bf
       -0.07039365219216061 -0.06917743989613767
0002a0 9d 08 02 e6 b1 8f 9c bf 58 7b 0d b8 52 09 88 bf
       -0.027891902602740094 -0.011736532441941769
0002b0 13 fb 20 b6 75 df 86 bf 77 0c 61 dd e5 28 94 bf
       -0.011168403263693649 -0.01968726314249777
0002c0 53 f9 a3 a7 ca 0d 88 bf 45 2c 99 66 06 38 a1 3f
       -0.011745055428488504 0.033630561851702136
0002d0 1a da b2 de 8b e6 5b 3f 91 77 b4 28 9c fd 64 3f
       0.0017029157559541653 0.0025623369198361575
0002e0 b9 6f bb 2a 78 84 89 3f 88 f8 cd c7 5d 50 a4 3f
       0.012459696582872814 0.039675646438795786
0002f0 82 24 da 8e 80 9d 97 3f 4a 1c 11 47 da e3 a3 bf
       0.023061760634423674 -0.038847752738143074
000300 95 4b ea c8 70 76 89 bf c7 0d ae 84 25 32 ac 3f
       -0.012432938701101107 0.05507008785846384
000310 d0 19 cd 51 e5 72 b1 3f 25 61 18 c1 b2 49 9d 3f
       0.06815942046259882 0.028601449046704936
000320 72 63 b1 f1 95 41 94 bf 4f 35 48 74 cb 40 91 bf
       -0.019781439663663254 -0.01684873482922927
000330 5f 92 9c 7f 18 96 8b bf 26 81 81 b7 7e d8 8a bf
       -0.013469878572842818 -0.013108243918566641
000340 7f 55 17 49 f0 df 88 bf a2 f0 70 aa b5 a8 78 3f
       -0.012145879011692838 0.0060202690429457546
000350 63 97 ac 3b b5 1d 69 3f 89 0c 32 cf e1 f4 7a bf
       0.003065923663046742 -0.0065811939886116855
000360 47 bc f9 eb 1c 13 8c bf f0 67 58 74 49 59 86 bf
       -0.013708330108071943 -0.01091248880679882
000370 e5 39 d0 bc de ab 91 3f cb 2f 0f bd 89 fe 7c 3f
       0.017257194780592306 0.007078683892313318
000380 c3 f6 88 ad 6e 55 80 3f 29 47 7a fb f7 49 44 bf
       0.007975449248188387 -0.0006191693164103496
000390 42 fd cb 20 9d a1 55 bf dc 6e 47 71 c1 4e 66 3f
       -0.0013202700094437502 0.002723100488067105
0003a0 51 5c 22 aa 07 ce 66 bf e3 b6 98 a9 97 93 61 bf
       -0.00278378960599527 -0.0021455728681506344
0003b0 4a 64 43 5b 1d 19 87 3f b3 d9 11 d0 b9 8a 88 3f
       0.01127837118876775 0.011983348524364645
0003c0 55 2b 92 5e 31 4e 86 bf d7 bb f8 b3 6b 4f 61 bf
       -0.010891328524186209 -0.002113066060494866
0003d0 46 f1 f0 e7 fd 62 87 3f 27 36 e4 22 b6 95 86 3f
       0.01141928066328347 0.011027739467432586
0003e0 0a 0f 97 a6 34 4e 6f 3f 2a 59 d4 25 86 07 a0 bf
       0.0038214710554899155 -0.031307403676850434
0003f0 52 07 0b cf f1 0a 97 bf 0f b1 7e db b4 4a 94 bf
       -0.02250268770399739 -0.019816232582955225
000400 b6 45 ee 93 15 a6 2d bf 16 6f e8 14 a8 a5 93 3f
       -0.000226202138915483 0.019186617160911267
000410 44 58 4b 2b 03 71 9b bf c0 9b ed bb b1 78 97 bf
       -0.026798295514560047 -0.022921349616264797
000420 fb 32 1f 9c 3d cd 84 bf 7c c8 c5 34 5d 7d 97 3f
       -0.010157090498887458 0.0229391635379632
000430 d9 c3 b6 09 65 3c 9b 3f fc 86 5d 9d 16 9b 9a bf
       0.026597574918642983 -0.025982240061586545
000440 39 f0 57 78 d1 73 92 bf 32 cd 64 ce 89 07 93 bf
       -0.01801993653315057 -0.018583443853640698
000450 33 63 4e 7d 1a a3 8b 3f 47 49 d0 b6 dc 48 a1 3f
       0.013494688939134391 0.03375901919948148
000460 f5 2e 58 84 6d 01 9c bf 33 d7 88 3d 44 7f 99 bf
       -0.027349196627297585 -0.024899545913476828
000470 56 d4 4a 72 a0 34 90 bf a3 61 2a 89 bf e7 84 3f
       -0.015825755096291104 0.010207649587116679
000480 03 14 28 dd c1 52 a0 3f 48 c2 55 ec 5e 6a a1 bf
       0.03188138794579489 -0.03401466975163153
000490 8f 38 55 55 b7 4f 8e bf f0 b8 a6 77 a8 26 81 bf
       -0.014800483981755512 -0.008374515677897126
0004a0 59 63 c2 31 bd 90 9e 3f e9 8f 0c af 68 1c ac 3f
       0.029849010622089753 0.054904242866797244
0004b0 47 61 d9 f3 f6 23 7f bf dd b3 32 49 5d d9 77 3f
       -0.007602657945959663 0.0058225292188298335
0004c0 ff 7e 31 f5 85 84 82 3f 79 4a 0d 70 f7 00 77 bf
       0.009041830582816155 -0.005616156152273726
0004d0 b6 11 bc c3 0b 0c 95 bf 5a 54 b7 83 a7 40 92 bf
       -0.020553764173216492 -0.017824761785807254
0004e0 8a c9 2d 85 70 2c 85 bf 66 53 8b 81 bc ed 8c 3f
       -0.010338667930885465 0.01412532110536242
0004f0 6a 03 bc a9 a2 d0 a1 3f 5c 29 98 2f 00 7a 95 3f
       0.03479488679841476 0.020973208336763846
000500 07 6d c5 b5 72 17 8d bf 57 58 35 99 d0 b5 8a bf
       -0.014204879924980774 -0.013042096782253916
000510 5a a7 78 a8 d2 10 7d bf cb d1 b8 ba d1 24 a0 3f
       -0.007096121676605305 0.03153090862580007
000520 43 e4 ab f1 d5 9d a6 3f e5 8d f6 47 e2 b8 98 bf
       0.04417294097033466 -0.024142776148108686
000530 99 06 c3 4f e5 77 98 bf 3e 0c 78 2c b8 18 a0 bf
       -0.023894865983271705 -0.031438594272934925
000540 0f 2f e4 23 89 ab 80 bf b2 9c 3a 7f c6 e7 99 3f
       -0.00813967839032828 0.02529821540397554
000550 39 c1 dc 5f 4a 71 95 bf 0b 01 c1 67 30 3d a0 bf
       -0.02093998155686558 -0.0317168356564271
000560 74 b5 fd 5a 25 05 a4 bf 5b 7e 59 41 7d 97 9c bf
       -0.039101760251336964 -0.02792163573610505
000570 c1 2f 98 96 3b 56 40 3f 5b 6f 3c aa 24 38 9a bf
       0.0004985609968470793 -0.025604794397721658
000580 e4 aa 10 f5 66 6d 97 bf 14 b2 7c 2b 85 90 80 bf
       -0.02287827368506158 -0.008088150395985351
000590 f1 55 19 b4 8f ae 87 3f 18 3b 95 88 10 bc 95 3f
       0.011563418086704554 0.02122522195468965
0005a0 d1 c6 2d ec 64 80 90 bf 2b a4 79 5f 62 60 91 bf
       -0.01611478511353576 -0.01696923930868281
0005b0 bc d7 33 ca ba ce 6c bf bd 92 3e 5d ef ba 60 3f
       -0.0035165451278044973 0.0020422625620589428
0005c0 37 27 db 38 92 97 01 3f dc 0c 8a c4 20 26 8c 3f
       3.355422005098116e-05 0.01374459838667124
0005d0 16 9e 48 63 42 3c 86 3f 49 b8 46 43 93 40 70 3f
       0.010857123045823019 0.003967833752922153
0005e0 39 a0 2e 2d b1 26 7f bf dc c9 a9 a5 bb 89 91 bf
       -0.007605259032892824 -0.017126972185403364
0005f0 6d a0 f0 d4 72 9d 98 3f c4 74 d1 ad 04 64 91 3f
       0.024038118597815506 0.01698310194875742
000600 f9 5f 3b c4 74 91 7a bf 8d e5 54 e6 18 79 92 bf
       -0.0064863740151039845 -0.018040074404074558
000610 97 90 4f b3 05 5e 8d bf c6 a2 2f 41 eb 5e 5c 3f
       -0.014339489493018482 0.0017316148193861499
000620 df 1e 05 ec 1c 47 6e 3f bb aa db e6 40 56 80 bf
       0.003696018684568133 -0.00797701553843432
000630 76 a4 1b 8e 39 44 66 bf e3 b2 59 f1 a5 6e 7f 3f
       -0.002718079006502945 0.007673881734814289

c1.bias f8 [8]
000000 c3 88 7a c4 a9 28 66 3f 4e cc ce 9e c2 b8 6e bf
       0.0027049365779286696 -0.0037502099207471834
000010 02 20 a5 35 81 a2 6b bf 5c 21 73 72 88 6b 59 3f
       -0.0033733867286720462 0.001551516770449699
000020 99 91 e4 c2 ae da 6b bf 8a 0e 6c 0f 12 a7 58 3f
       -0.003400174456276339 0.0015046764726215655
000030 14 0e 49 5d 52 8f 6f bf 06 81 e9 eb 07 12 6f bf
       -0.0038525208167656897 -0.003792777511350323

c2.weight f8 [8, 8, 5, 5]
000000 d4 f4 ee f8 73 31 47 3f 60 98 c3 be ab 93 6b 3f
       0.0007077995559182878 0.003366313400067475
000010 31 d2 31 0c 47 66 8d 3f 06 fc c4 a1 16 95 71 3f
       0.01435523515667922 0.00429257240858672
000020 2e e6 f7 1e ea 58 85 bf c4 ff 5a d5 08 44 6e 3f
       -0.010423497266844963 0.0036945507552843277
000030 d4 c2 41 7f 7f 10 5c 3f d6 af fb 2e ce d7 82 bf
       0.0017129178131904304 -0.009200678643047338
000040 e3 f0 60 09 0c 6f 9c bf c4 d7 7c d6 36 9c 96 bf
       -0.027767360756329473 -0.022080284920967377
000050 ff 55 7c e7 56 66 98 bf 99 e3 ac a9 08 a5 98 bf
       -0.023827894095196808 -0.02406705413452279
000060 e5 9d 3c bc f8 4a 8f bf 1f 7e c6 b3 cd ae 61 bf
       -0.015279715771227617 -0.0021585481283208498
000070 d5 22 45 4a e3 dc 65 3f 9d 89 36 f1 4e fd 68 bf
       0.0026688040981393915 -0.003050474342402866
000080 a9 d7 2f b6 da 4a 80 bf e9 61 9c 0b 16 a0 4e 3f
       -0.007955273327734451 0.0009346110957464934
000090 54 8c d7 90 f0 95 8c 3f ab b5 cb da 51 ba 60 3f
       0.013957862301088898 0.002041969177631405
0000a0 5f 92 f6 b1 58 71 78 3f 1c 36 2f f2 94 31 95 bf
       0.005967470613005148 -0.020696952134860877
0000b0 a3 9e f8 4c 5a 12 98 bf 0a 47 b7 d5 6e c0 84 bf
       -0.023507510135600495 -0.010132661721317788
0000c0 aa 55 b3 9b a5 97 89 3f 72 22 cc dc 67 77 84 bf
       0.012496274770834887 -0.009993373323156283
0000d0 d2 82 8e ae f7 42 86 bf ff 2a 64 48 e4 11 95 bf
       -0.010869917883441192 -0.020576064031994964
0000e0 d1 89 09 b8 98 d7 91 bf 60 e0 8b d1 4a cc 94 bf
       -0.017423998100989217 -0.0203105631253212
0000f0 b7 1a 4d 18 30 dc 7f bf 24 66 02 a3 9f 9d 53 3f
       -0.007778346892172542 0.0011972483589829464
000100 82 fa bb 06 f2 49 77 3f 3b dc 0c 6d d9 d5 89 3f
       0.005685754218346719 0.012614916458558159
000110 43 bc 5f c5 ab e2 71 3f f0 a0 06 74 73 a6 99 3f
       0.004366560917318077 0.02504902263322689
000120 d5 ca 46 25 6a e1 a2 3f 78 05 1e 76 d3 ff a1 3f
       0.03687602715526387 0.035154922646152664
000130 bd b9 0d 65 e4 83 a5 3f eb 1e 9c 49 6a d7 98 3f
       0.0420218823772873 0.024259243719852924
000140 18 24 2a 6c 0d 96 81 3f 14 20 49 bf 1b 30 5b 3f
       0.0085869835504742 0.0016594191521495149
000150 85 bc 75 a9 d7 f3 8a 3f 66 2d 6e 78 36 ca 73 3f
       0.013160405024534203 0.004831517005082863
000160 6e 49 4e a0 84 28 7d bf 6d a8 23 82 a5 3d 93 bf
       -0.007118719168732175 -0.0187898502999037
000170 a7 7b 1d a7 28 7e 9b bf d0 7d 58 ec 7d 5e a0 bf
       -0.02684844512929954 -0.03197091589049317
000180 50 bf 83 da 6f 4c 96 bf 60 cc ad 92 93 0d 70 bf
       -0.021775958740305967 -0.00391919751824607
000190 41 48 63 f1 02 01 6b 3f 41 18 6b e6 c5 5f 7a bf
       0.0032963807562760576 -0.0064389925452755245
0001a0 b8 a0 02 57 ab e9 8a bf 06 a4 59 d2 98 f0 7c bf
       -0.013141001313059383 -0.007065388641060549
0001b0 b1 e1 62 df 2d 99 8b bf e9 6a 2e 80 69 83 64 3f
       -0.013475759868342903 0.0025040684281071213
0001c0 e5 70 c7 a3 9d 31 62 bf e6 f0 38 6b 39 57 7e bf
       -0.0022209242726899275 -0.007407402317366007
0001d0 f8 b1 11 83 5a 9c 80 bf 07 f1 1a e6 fc 57 87 bf
       -0.008110720753585973 -0.011398292324309013
0001e0 49 ad 20 7c bc bd 5a bf 26 2b 4c 0f 97 97 79 bf
       -0.0016321507141679617 -0.006248083188220821
0001f0 34 ab 3a b9 eb 5b 74 bf f0 9e d9 8c 92 a1 71 bf
       -0.004970475001452358 -0.004304478131963427
000200 a9 c9 15 d0 ff de 61 bf cb 04 b8 5f 08 23 7b bf
       -0.002181529650152576 -0.0066252066712888065
000210 0d f8 f9 76 b7 c1 81 bf c8 e4 df 66 f7 cf 77 bf
       -0.008670266455052223 -0.005813566602222049
000220 2c 49 09 3e 8e e9 eb 3e 1f c5 2f b0 a9 ab 63 3f
       1.330963454041332e-05 0.0024011911605091997
000230 03 38 e0 5d e8 ca 56 3f 1c fe 64 4a 57 e4 f3 3e
       0.0013911503988341962 1.8970448445230795e-05
000240 a1 15 5e 3b a5 8a 7b 3f fb d0 9b 4b 9a 14 91 3f
       0.006724019467474391 0.016680155625139453
000250 fd f4 6a dd e2 56 7d 3f 75 0e 53 a2 0d fb 84 3f
       0.007162939253871456 0.01024447108864666
000260 ae 07 12 ba 0b 3f 55 bf 27 fe 09 db 7f 76 7a 3f
       -0.001296769573201999 0.006460666118641301
000270 5e de 4a 6d 66 99 88 3f fb 98 12 80 50 df 88 3f
       0.012011337480870295 0.01214468851896954
000280 ac 21 14 23 87 6e a4 3f 19 78 9a ba a6 85 b1 3f
       0.03990576079565086 0.06844560676333379
000290 a6 dd ed 97 05 54 b3 3f 59 a9 c2 de 66 f9 a2 3f
       0.07550082167823877 0.03705903500788805
0002a0 b6 de 8d ce 1a 6e 97 3f d7 48 bf 5b 1b 3f 87 bf
       0.022880953652445433 -0.01135083554973841
0002b0 46 ac 38 22 b6 ec 5a 3f 18 d6 e0 47 7e 5d 9a bf
       0.0016433504723731992 -0.02574727357587933
0002c0 7f 80 2e b9 53 07 99 bf 02 5e 29 1e 8d 4d 91 bf
       -0.02444201295622905 -0.0168973970088171
0002d0 2c b6 a5 5b c0 06 ab bf 82 7f f3 3f 9b c1 a1 bf
       -0.05278588408223714 -0.034680224949396724
0002e0 c9 59 1f 21 fc c8 95 bf 03 67 9b 1b f9 b9 89 bf
       -0.02127450897372699 -0.012561746745109575
0002f0 4b db a7 fd 2d 68 9f bf 69 9b 7e 50 2f ba 95 3f
       -0.03067085133258311 0.02121805123138235
000300 51 35 a2 28 03 0e a3 3f 0c d8 a5 c3 c5 1d a1 3f
       0.037216280660781316 0.03343027127532147
000310 dd 9b 53 93 db 85 84 3f bb 6a fe f4 b2 3f 82 bf
       0.01002093833308309 -0.008910558797471926
000320 45 62 a2 b7 40 22 67 bf 29 27 9e 3f 11 50 6b bf
       -0.0028239501962839275 -0.0033340775380040944
000330 b5 1d 75 ca 08 b5 5e 3f 59 c9 b9 33 dc 00 7d bf
       0.0018742166374340178 -0.007080898441574079
000340 c0 6c 4b e4 43 9f 69 bf 0b 0d 58 e2 cd fd 57 3f
       -0.0031277013789413333 0.0014643202388249811
000350 6a 56 5e 68 ba 86 86 3f 8d b8 34 28 71 7e 75 3f
       0.010999161062311209 0.005247537631744359
000360 2f 41 41 94 f8 62 60 3f fd ef 73 e8 7d 26 6a 3f
       0.0020003180561972904 0.0031921824589726797
000370 72 bd 48 be 7f ad 75 3f cf 09 50 c5 2c f7 5e 3f
       0.005292414662604871 0.0018899857725506069
000380 f7 2a 79 c6 57 22 64 3f 85 d8 80 3c 8b f5 67 3f
       0.002457782207590294 0.002924701639154983
000390 58 a5 78 82 83 e3 71 bf cc e1 16 b2 6c 33 43 bf
       -0.004367364606460221 -0.0005859642735038194
0003a0 7d 72 e1 b5 25 14 5d 3f 18 77 1b 07 4e 5e 77 bf
       0.0017748230234452538 -0.0057051704368100906
0003b0 77 50 be 02 13 ce 7a bf 46 fc 3d 8b 26 20 51 bf
       -0.006544183979617305 -0.0010452629475990057
0003c0 c8 f1 82 ed 5b 93 49 bf 9d 6e 30 f3 19 56 7c 3f
       -0.0007805060258970148 0.006918050162336845
0003d0 b6 0a a1 16 26 c2 46 bf e8 a1 5b c4 63 83 6b bf
       -0.0006945310572138072 -0.0033585499357864264
0003e0 83 0e 9a f5 63 26 83 bf d9 56 f7 2b c2 74 75 3f
       -0.00935056775347865 0.00523830269181299
0003f0 39 09 57 f1 f0 23 7e bf 47 32 b9 f7 27 f4 54 bf
       -0.007358494932704845 -0.0012789144810937557
000400 12 50 16 7a 3e 9d 8a bf 24 73 cc 05 30 e0 8c bf
       -0.012995231724552556 -0.014099478890381052
000410 3c 14 ac 4f 05 45 80 3f 0a 8b 38 ec 78 b8 74 3f
       0.007944146627332775 0.005058739046520664
000420 7b 88 14 f0 5a 85 80 bf 0b 62 4c ba 45 4f 9d bf
       -0.008066854907671442 -0.02862271260809916
000430 fb f9 28 23 19 9a 9c bf 21 d5 f8 30 05 e9 a0 bf
       -0.027931587954521202 -0.03302780363848457
000440 61 f5 ed aa 61 49 9f bf 52 61 49 79 57 f6 a2 bf
       -0.030553365762434285 -0.0370356879763586
000450 e0 81 a7 75 e8 49 a1 bf e7 07 ea 2f 0f 9c 97 bf
       -0.03376699863634136 -0.02305625657982793
000460 50 e4 33 1b 04 de a3 bf 2e d2 c2 5d 02 6a a0 bf
       -0.03880322296203842 -0.032058786340176545
000470 ef 1f c1 ee 24 d1 87 bf 6c a0 eb 43 28 e8 3e bf
       -0.011629379783826692 -0.0004716013244618958
000480 5d 46 c3 74 b3 ef 87 bf 6c a9 e9 f0 27 0e 77 3f
       -0.01168766212541355 0.005628734607493118
000490 ae 18 0f 56 51 ec 8f 3f bf e2 12 b9 44 78 a1 3f
       0.015587459029017783 0.034120700447095136
0004a0 99 d3 d4 bb fb ce 9f 3f e9 b2 66 9e d7 bd 7d 3f
       0.031063016261402152 0.007261125813255311
0004b0 5b 89 31 5d d0 8d 72 bf 8f f2 f0 2e ad d2 82 bf
       -0.004529775545139304 -0.009190896029502653
0004c0 2b 87 05 d9 cf 16 86 bf 5d ed f0 24 06 3a 7e bf
       -0.010785697756265108 -0.007379554749657427
0004d0 6b c1 b6 a6 22 70 89 bf 0b 64 56 93 75 b7 42 bf
       -0.01242091246862805 -0.0005711864566136938
0004e0 69 5b 48 e1 ae 37 72 bf e6 64 aa 5e 21 3e 53 bf
       -0.004447634816208226 -0.0011744809986907133
0004f0 cb 10 f3 f7 51 2c 66 3f ac 34 e0 b6 41 98 34 bf
       0.0027066803882878957 -0.00031425098757227143
000500 57 75 2c d6 68 e4 96 3f b3 96 1c e6 a0 6e a0 3f
       0.022355688163874756 0.03209402855854417
000510 6e e3 88 43 5e 3a 93 3f d3 fd cb cd b0 1c 91 3f
       0.01877734458159657 0.016711008606760402
000520 12 4e b5 a5 9d d6 80 3f 87 04 6a 25 4d 2b a5 3f
       0.008221847171319605 0.04134598809924577
000530 a0 2c ab eb e6 60 a1 3f 7a 3d 19 d1 7f 56 88 3f
       0.033942428844590866 0.011883734291727722
000540 f1 b6 9b b9 c4 5a 65 3f 59 03 9c d0 06 e4 76 bf
       0.0026067583356653647 -0.0055885568815491
000550 45 66 f3 da 39 8e 7b 3f db fa 05 7b 03 27 6c bf
       0.006727434155629879 -0.003436571882218115
000560 87 b4 00 36 34 88 63 bf 8f 4e 3a 4b 4e 5d 6b bf
       -0.0023842830414851387 -0.0033403901268885326
000570 82 8e 88 e9 a0 af 7d bf b9 2c e4 f4 3f f6 77 bf
       -0.007247570575177444 -0.005850076513762286
000580 ed 87 59 db 81 c5 7a bf d1 59 8b f8 2f 1f 63 bf
       -0.006536013844739214 -0.0023342072421243883
000590 28 22 d5 50 f4 d4 53 3f 76 13 2e 96 14 f9 7d bf
       0.00121044024429485 -0.007317619720997528
0005a0 43 0b 78 b5 15 df 5f 3f 6a 4d 8b 01 63 72 6d bf
       0.0019452774048438072 -0.0035945829116401
0005b0 56 28 c6 be 73 41 40 bf 89 93 db ec cf f8 77 3f
       -0.000496083751884822 0.005852520187293994
0005c0 34 1d e7 17 c5 4f 45 3f a2 22 20 e1 bc 3f 61 bf
       0.0006503784532520319 -0.002105587868758655
0005d0 2b 05 b4 5f d6 d0 71 3f 60 34 a1 6c 12 0c 61 3f
       0.0043495534876012805 0.002080951676396256
0005e0 1d 44 bc e7 5a 9d 7b 3f c2 20 62 13 27 29 00 bf
       0.0067418623909967475 -3.0824189182489175e-05
0005f0 0b ab 08 fd 04 7e 7b bf 4f 00 d3 26 94 44 79 bf
       -0.006711978422155661 -0.006168917386446606
000600 d2 4f c9 53 5b d0 63 bf c1 0d 73 c4 df d2 70 bf
       -0.0024186881767409374 -0.004107355204897301
000610 12 77 60 aa a9 d0 67 bf 83 f3 b4 a3 32 9b 7c bf
       -0.002907115343090968 -0.00698394566580596
000620 f8 71 d8 80 6f 67 51 bf 12 44 3a cf 31 35 63 bf
       -0.0010622586154404017 -0.0023447010842763205
000630 4a 80 19 82 1d 46 62 bf df fe e5 9b 73 3a 7b bf
       -0.002230699189382822 -0.006647540662356482
000640 9d 8c 45 ab 2e 6f 95 bf de 42 8f 0c ab a7 82 3f
       -0.02093193931922298 0.00910886413649464
000650 78 b6 f0 e7 4f ea 92 3f b5 da d8 a5 21 fd 82 3f
       0.018471954852591982 0.009271872400046769
000660 f6 b6 12 c6 41 e5 87 3f 8e 22 6f 3e c4 fe 99 bf
       0.011667741639338907 -0.02538591986720689
000670 7d a7 51 c6 ed 05 81 3f d4 de 46 6d f7 28 95 bf
       0.008312089552606977 -0.02066408733818899
000680 c9 01 0e 55 c1 9f 9d bf 56 da 1e 75 68 5a 92 bf
       -0.028929730240180782 -0.01792300429198187
000690 a1 d9 44 2f 1e 2f 42 bf a1 20 ac 58 b3 aa 25 3f
       -0.0005549332986792174 0.0001653045586282919
0006a0 9f c5 fb c5 10 30 a4 bf 97 3b 8f 71 8d fb a8 bf
       -0.039429210822969234 -0.048794193374866505
0006b0 7d 72 cb 34 2b 3c 99 bf 78 bf 7f 2e 61 7b 78 3f
       -0.024643588158925745 0.005977038970726649
0006c0 70 b2 f2 a8 b4 22 92 bf 19 07 99 2c 78 30 91 bf
       -0.01771051675011609 -0.016786458704024818
0006d0 aa bf 76 46 95 19 85 3f 48 7b 2c 17 29 95 90 3f
       0.010302702153097549 0.01619400218907721
0006e0 76 f4 ea 65 f3 c6 82 bf 83 7e d2 ee 31 df 88 3f
       -0.009168530986580086 0.012144460774208504
0006f0 23 4e 4f cf 7e 26 ab 3f 16 c9 7c 53 66 5a a0 3f
       0.05302807121884381 0.03193969506391363
000700 6c 77 66 ea 0e 38 7e bf 71 ef b1 78 d9 47 7f bf
       -0.007377680076755638 -0.007636880395803889
000710 18 ef 29 c4 1d 79 62 bf 98 01 f8 2f 96 5c 5c 3f
       -0.002255018365131433 0.0017310587571729204
000720 85 ec 46 c1 d2 c9 85 bf e1 63 a3 d1 9e ae 64 3f
       -0.010638853572223059 0.002524671738779891
000730 49 20 bf ea 96 e9 96 bf 89 13 54 99 d4 02 8f bf
       -0.022375448301119403 -0.015142117432796602
000740 88 41 be 7e f7 a0 89 bf b2 87 f5 83 cc d7 95 bf
       -0.012514051013369679 -0.02133101993002357
000750 92 80 ba c9 ae ce 85 bf 4a 59 57 00 95 89 52 3f
       -0.01064812234045601 0.0011314349261418327
000760 1d 24 75 49 5e 48 84 3f 93 07 ee 03 b7 f3 94 bf
       0.009903656594035632 -0.020460948576789994
000770 3b c9 f9 e5 ef b3 73 bf 98 4e 61 c4 30 0d 95 3f
       -0.004810273268605332 0.02055813025101702
000780 43 09 ce 1d b3 51 70 3f c1 2b 21 fd 4f 5f 4f 3f
       0.003984164880309673 0.0009574070520640341
000790 de 13 a7 6f dc 69 67 3f c5 3c c6 a9 9c 5d 83 3f
       0.0028580956834240853 0.00945589440450901
0007a0 91 26 04 7a d6 e0 98 3f 66 cb c3 4e 22 19 98 3f
       0.024295188138273863 0.023533378655837288
0007b0 16 ad 69 26 c0 5b 69 3f 99 6a 16 61 cd 46 85 3f
       0.003095507901255022 0.010388950848939248
0007c0 3b e3 cd 20 f0 59 62 3f b8 cb 6d a7 d3 e6 76 3f
       0.0022401514055982153 0.005591227315437423
0007d0 d2 78 aa 7d 79 84 99 3f 8e c6 70 cf 80 52 80 3f
       0.024919412894285405 0.007969862299521038
0007e0 00 2c 79 d1 e0 a8 38 bf fd a5 c7 5c 47 ec 89 3f
       -0.00037627686240132574 0.012657697218815928
0007f0 9a 6f ab b1 9f ac 65 3f e7 50 0e 09 ab 48 83 bf
       0.0026457900070066655 -0.009415947164406592

c2.bias f8 [8]
000000 40 9f eb f2 c8 b5 6b bf 8e 75 6b c6 b6 e1 23 3f
       -0.0033825802596431365 0.0001516852964504153
000010 e9 3a 4d 5e 09 e4 63 bf 23 39 55 6e a3 dc cf 3e
       -0.0024280722595116833 3.7982307385171274e-06
000020 b0 d2 a0 4f 5c 8a 69 bf 60 54 ce 22 58 7d 4f 3f
       -0.0031177332830572765 0.0009609871245738304
000030 66 70 1f a5 1f fa 6d bf 46 9c 97 43 23 ab 5b bf
       -0.0036593072954769655 -0.0016887516379655728

f.weight f8 [10, 128]
000000 be 7b 64 35 d2 5d a1 bf 2f 71 9a 98 7d ca a0 bf
       -0.03391892339481427 -0.032794880750972026
000010 d4 4f 62 1f 97 07 93 3f b7 7c e1 9c b3 ba a7 3f
       0.018583642282990656 0.046346295261849794
000020 2a 46 a2 de 4b 55 93 bf 4d ed c5 88 92 a9 78 bf
       -0.01888006731366524 -0.006021091842167548
000030 7b 6c f8 41 ba 25 a3 bf e3 83 c1 7b 9f 21 81 bf
       -0.03739721350958632 -0.008364911998968999
000040 f4 82 bb 66 24 11 7c bf a9 fe 03 8e e9 51 a4 bf
       -0.006852285568783801 -0.03968744143093989
000050 a3 6f 24 9b 89 09 b4 bf be 7f 95 76 39 28 a5 bf
       -0.07827053105978492 -0.041322513318618345
000060 cd b4 b6 1a 4e b8 95 bf b3 a9 ca 81 cc c5 92 bf
       -0.021210880642389896 -0.018332667753080133
000070 4b ad 08 98 c8 13 8f bf df 27 e3 03 3f 0a 7a 3f
       -0.015174452914911504 0.0063574277430209205
000080 6b b5 99 30 1f b2 a2 3f 90 7b 9b 46 61 22 99 3f
       0.036515211756390574 0.024545211729555982
000090 86 50 50 fa 9b d6 5d 3f 02 3d 07 41 43 6d 91 bf
       0.0018211863728128399 -0.017018366664896874
0000a0 9f b6 9b 40 34 38 aa 3f 23 27 e8 c4 c5 54 a4 bf
       0.051210053335905 -0.03970926312110936
0000b0 65 36 8d ae de 64 c4 bf ed 80 23 cf 7c e8 a2 bf
       -0.15932830355670827 -0.03692998913334287
0000c0 58 27 79 0a 13 80 80 bf 44 6e 33 9c a9 6c b0 bf
       -0.008056782490843226 -0.06415805877207342
0000d0 3f b9 60 29 e4 e9 8e 3f 78 cb c1 80 d3 24 92 3f
       0.015094549668074662 0.017718605741218835
0000e0 ce 9e 99 f1 55 fd a2 bf 54 c3 5c 99 f2 30 95 bf
       -0.0370890481397602 -0.020694532976622895
0000f0 54 ca 71 64 97 ce 86 3f b0 78 9a 11 62 1f 98 3f
       0.01113622927934902 0.023557216953684346
000100 56 85 67 4a 8e bc 8b bf 99 23 d1 bb 33 9f 98 bf
       -0.013543235440865924 -0.024044807756840567
000110 98 58 1a a5 8b d9 a7 bf a4 7c e7 e1 90 f6 8a 3f
       -0.046581615356602046 0.013165599721956696
000120 b3 1f 0b 52 2e 04 a2 3f b7 67 4d 44 28 4a 81 3f
       0.035188148036069754 0.008442225059912418
000130 be 61 43 34 05 9d 8b bf 2b 29 b1 f2 7e 61 9a bf
       -0.013483086259314155 -0.025762542307611696
000140 19 b6 46 92 75 6a b1 3f a2 ec 1e 35 61 80 b4 3f
       0.06803068944164926 0.08008391901869286
000150 29 ad eb 64 82 49 91 bf 7d 26 f0 a8 a8 9a 9a bf
       -0.016881978425698527 -0.025980601607477716
000160 47 09 e5 dc 96 5c b0 3f 01 c5 fb fe e8 e4 b7 3f
       0.06391280072151516 0.09333664155180445
000170 7c 1e a2 a8 3c 8c a9 bf 2a ab c1 02 ee 41 af bf
       -0.04989804800521555 -0.06104987891816045
000180 3b 7a dc e4 9a db 85 bf 1a ed 93 46 1c 19 a0 bf
       -0.010672769650736593 -0.03144157754464967
000190 c7 57 19 2c 8a 98 a1 bf d9 19 1c c1 48 e1 a3 3f
       -0.03436691082303827 0.03882815701767912
0001a0 57 4d d6 bb 6a 1e 9b 3f d7 2e 64 48 f5 30 9f bf
       0.026483218874614547 -0.030460197966973048
0001b0 6e 2d ab 61 e6 8d b8 bf b1 5a be 8e bd be 9c bf
       -0.09591522106636827 -0.028071367108703785
0001c0 1b eb c7 c0 7c 12 8e 3f c5 03 d4 b0 ce dd 33 3f
       0.01468369925804818 0.00030313774261974915
0001d0 49 65 51 be d2 2f a1 3f 57 ef 79 ed 51 79 8b bf
       0.03356798718659577 -0.013414993343068877
0001e0 29 ed e2 b3 3b 76 a4 3f b7 b4 52 3a 18 0a 9c 3f
       0.03996454783324516 0.027382257995374384
0001f0 36 ba a6 8a aa ca a3 3f 00 03 d5 07 e2 96 81 3f
       0.03865559523125166 0.008588567604080222
000200 48 18 7e 57 8a cc 83 bf 4a 42 29 da 65 59 88 3f
       -0.0096674735975847 0.01188926288628624
000210 33 af a0 25 30 fc 99 3f 6a 83 8f 98 57 c0 98 3f
       0.025376083656893655 0.02417122715621948
000220 a8 9a d6 0d db 50 9e bf 67 15 f0 20 ef 84 a8 bf
       -0.029605314941046373 -0.04788920666764334
000230 4d a4 d2 14 d2 55 ac bf 62 08 84 f0 a3 cb 73 bf
       -0.0553422594469529 -0.0048328784835139655
000240 79 8f 70 c8 22 60 9b bf 19 d5 e6 34 f3 b3 8c bf
       -0.026733916744106054 -0.01401510243600028
000250 39 1e c8 c4 2e 2e 4b bf 28 fc 7a c0 37 a1 85 3f
       -0.0008294800150573995 0.010561404763732865
000260 90 22 b5 ae b9 2f 8f 3f 5b bd fb 98 8d 5c 9c 3f
       0.015227747577811784 0.027696812116969265
000270 e5 bc c6 67 3e a3 ad 3f da 42 cf f1 9f be a3 3f
       0.057886076133735455 0.03856372668054116
000280 a2 d4 d5 e8 26 63 89 bf 64 05 75 84 2a 22 76 3f
       -0.012396148663109511 0.005403677066455035
000290 c7 35 10 cb 62 dd 95 bf 4b 15 52 66 63 2f b1 bf
       -0.02135233272934103 -0.06712933776915013
0002a0 0c 53 a9 93 69 db 9f 3f c3 1c c0 8a f8 0c 90 3f
       0.031110429418123295 0.01567447993150207
0002b0 33 5d 40 e9 46 4b 91 bf 6d f5 24 1f 57 0e b7 bf
       -0.01688872145322513 -0.09006256590233415
0002c0 90 cd 55 96 ee 82 97 3f 95 5d 53 06 c8 7f 87 3f
       0.02296040337155386 0.011474192326587121
0002d0 29 87 60 ce 9d 10 b3 bf 54 dd f0 93 08 9e 8e 3f
       -0.074472296605134 0.014949862494275358
0002e0 d5 39 cf 99 f9 5e 9b bf 4f ae ec ba 5c 37 72 bf
       -0.026729488384995854 -0.004447328784219786
0002f0 43 84 78 38 7f 7a 9a 3f 0a a4 74 83 0d 57 ad 3f
       0.025857913800909193 0.057304785057859034
000300 67 53 f2 13 2a e1 6e bf 41 a2 51 31 14 1f 92 bf
       -0.0037694761118224787 -0.017696681509195015
000310 fe e2 e3 3c 54 db a6 bf bf e7 57 34 74 38 af bf
       -0.044642097885974494 -0.06097758425671839
000320 7b d5 85 8b 96 84 9c 3f a5 eb 0d 70 9f f0 7a bf
       0.02784953333453675 -0.006577132037700749
000330 38 36 57 e8 70 67 9b 3f f6 34 5c 5e 13 9d ae bf
       0.026761783772420084 -0.0597921421705027
000340 9f 25 33 3b 27 e7 b1 3f fc 42 6c d1 7d d2 b0 3f
       0.0699333686381096 0.06571184504378985
000350 b4 d8 85 ef 0c c8 ab 3f da 73 85 f9 5c 3f 92 3f
       0.05426063941824691 0.017819836358615372
000360 1c 42 01 9e cc 9e af 3f ac c8 10 a0 e8 57 a6 3f
       0.06175841740389762 0.04363944009709661
000370 af 05 03 19 b8 77 9d bf a4 52 0c b2 e6 30 97 bf
       -0.028777004744147735 -0.02264748059959011
000380 14 7d 5c 76 67 03 a7 bf d0 c7 ad f8 6f 8e 96 bf
       -0.0449478466018666 -0.02202773051562429
000390 65 a5 4e e0 5d 31 94 3f 55 df a3 aa 73 92 b3 3f
       0.019719569030404744 0.07645342746752466
0003a0 62 61 9a 2c 4c 05 96 3f 9c 5a 7b 1a 57 7d 8c bf
       0.021504583570817977 -0.013910942550336806
0003b0 96 09 ee 2c db 3c 90 3f 35 be 43 e7 34 02 b4 3f
       0.01585714780549948 0.0781586708651439
0003c0 64 67 3d 62 6b 70 ae 3f 26 fe 7e 23 90 aa 7c bf
       0.05945144247262027 -0.006998599092127777
0003d0 b6 1f 9b 69 d5 16 ae bf 65 ac 4b f2 2a d8 87 3f
       -0.05876795686850704 0.011642776030802613
0003e0 fd ed eb de 25 09 b2 3f 91 00 c0 68 51 f8 80 3f
       0.07045208637639884 0.008286129006592343
0003f0 f1 58 3b ab 48 31 b5 bf e2 7a 60 f9 65 b4 98 bf
       -0.08278326206650256 -0.02412566504073766
000400 3a cd a8 0a a9 48 6f 3f 92 cc 39 e3 2f a2 93 3f
       0.003818826827478053 0.019173382037888383
000410 4c 76 a1 0a 84 08 a2 bf a5 fa a8 c2 d0 a5 b0 bf
       -0.035221220300382855 -0.06503014328425623
000420 aa b3 4c 1c d9 55 73 3f 28 ee 38 7e 15 24 a3 bf
       0.004720542991702917 -0.037384673746114594
000430 b9 4a eb d1 07 b8 a2 bf e1 56 ef 80 f6 67 93 bf
       -0.03656029164780734 -0.01895127450901313
000440 6d 10 38 1c 16 8b 80 3f f8 68 15 71 de 57 9b bf
       0.00807778619401508 -0.02670238080222817
000450 d5 66 8e 63 8a 59 a5 bf e2 fa 83 08 ee b9 a0 bf
       -0.0416987654236444 -0.032668531932349656
000460 40 72 2e d9 e0 4c 90 3f 66 1f a8 2b 0f a5 90 bf
       0.015918267493918004 -0.016254651107402117
000470 f5 98 22 4e 40 fc a3 3f dc c1 85 40 ca e6 b0 3f
       0.03903389886663603 0.06602157664543234
000480 d4 ab e4 2d 63 c6 b3 bf 4c b3 f2 80 c0 22 a4 bf
       -0.07724590177956198 -0.039327636471489485
000490 5c 7a 99 53 0b d5 97 bf a1 4d 7b 24 2b 61 80 bf
       -0.023273636796483962 -0.007997834254104332
0004a0 fa 6f f1 6d cb ac 86 bf 90 3a 28 10 b8 7f a6 3f
       -0.0110717671324707 0.04394316861372716
0004b0 4c 6d 12 bc 96 1a 82 bf 0d 59 1f 1d 3b 7b bc bf
       -0.00883977662515769 -0.11125535450932862
0004c0 ff bc 88 1b 5b 5e a2 bf 57 4d 2d 13 9d c4 47 3f
       -0.035876128302669834 0.00072534246133175
0004d0 c5 00 0a ec ea bc b7 bf 4b b7 bd 68 1f b0 5d bf
       -0.09272640478775702 -0.0018120104532175104
0004e0 31 33 3e d3 71 c9 a7 3f c8 89 29 87 34 9d 7e bf
       0.046458775555129235 -0.007474141299641031
0004f0 b0 72 30 08 53 fa ad bf 5f ad f8 bd 64 54 a4 3f
       -0.05855044817892485 0.03970637148844491
000500 9a 79 bf c7 ed 2a 60 3f b8 9f 81 9a 4d 3d ad 3f
       0.001973595060902511 0.05710833083213579
000510 07 52 fc 01 9e b9 b0 3f b2 59 04 c8 5b 6c a1 3f
       0.06533229397275174 0.034029834905754966
000520 50 ec 9a 63 c4 e7 70 bf 93 c2 c6 0d 18 ac ab bf
       -0.004127280373434308 -0.0540473477188971
000530 64 1d 85 f1 d7 c2 a3 3f ee f6 ce a1 25 f2 a8 3f
       0.03859591315500202 0.04872243499947425
000540 9f a8 6b 6b cc 41 87 bf 0c 6a 44 2a c0 a0 a2 bf
       -0.011355969455923818 -0.03638268009145315
000550 ba 07 f8 6e 48 84 a8 3f 6b 23 71 02 bb 29 a9 3f
       0.04788423876381338 0.04914650349434776
000560 41 e7 34 73 ab 0a 80 bf 52 c0 8b 3f c8 d1 a2 bf
       -0.007832850888565114 -0.036756761319225575
000570 a3 33 26 5e 70 be b4 3f 6d 9f 38 dd 83 d9 85 3f
       0.0810308675629146 0.010668783367762303
000580 f8 73 47 1e 3e 9d 95 bf 13 e9 e8 3f 90 43 8e 3f
       -0.021107645605173503 0.014777304602024565
000590 e3 e3 52 bd df 69 8d bf 48 f1 f3 ef 14 ce a2 bf
       -0.014362094845965906 -0.03672852925407938
0005a0 e7 ff b6 96 2a c2 56 bf 3b 35 34 e2 eb 41 a9 bf
       -0.001389066305691239 -0.04933106552389651
0005b0 5d a6 af 83 53 43 b9 bf 1f 78 38 26 51 72 a7 bf
       -0.09868356671327079 -0.04579404441413736
0005c0 7a 16 a3 b5 2e 3e 71 bf 0b 62 68 7d 01 f3 a1 bf
       -0.004209692439138041 -0.03505711227279925
0005d0 63 c6 d7 45 ea 79 a5 bf 10 cd e2 ae a7 22 ab 3f
       -0.04194576361250026 0.05299877176130441
0005e0 93 0f f4 2a 74 ff 95 3f 0f db 40 2f 0c 56 92 bf
       0.02148229133764763 -0.017906370529284617
0005f0 05 43 4f 38 ba bd a3 bf 70 34 83 37 93 04 a0 3f
       -0.038556880353672475 0.03128490498202374
000600 30 51 5f fd 11 d6 87 3f 9b 46 c4 f7 c3 dc 8a 3f
       0.011638775391397432 0.013116389273395248
000610 1b e5 ef dd 60 9d 9c bf 4f 1e bc 02 c5 ce 9a bf
       -0.02794410090061659 -0.02617938832466243
000620 9f a4 9f 8a 8a bc 90 bf 3b 9c c8 1a db 77 a3 bf
       -0.016344227515138084 -0.038023802775847014
000630 3f 2a 1b dc c9 d1 a5 bf 17 dc da 9e bc d4 87 bf
       -0.0426161843475552 -0.011636231992595154
000640 51 9f 98 b6 9e 20 a1 bf ea 94 00 88 dc 33 ad bf
       -0.03345199564893043 -0.057036296464767336
000650 20 10 4d c5 89 a4 a1 bf 0a ec 0b 00 d9 c1 87 3f
       -0.034458451590154704 0.011600203813477723
000660 ab 24 41 24 49 2a a5 3f 71 e3 3f 0e a1 cd 7d 3f
       0.0413382393604221 0.007276181338959784
000670 5e 11 64 41 23 f6 89 3f 6c d8 d4 74 a3 81 ae 3f
       0.012676501687118143 0.05958281327404866
000680 75 e3 bd bc b4 b3 97 bf f3 c3 87 0b 77 25 9a bf
       -0.023146461505777666 -0.025533542708163947
000690 64 84 1b de 6b 85 99 bf fa cf 12 7d 5f c8 b1 3f
       -0.024923024588933265 0.0694636993746939
0006a0 8a 3b 5c 86 ab e7 a2 3f 12 d2 35 c9 a2 f9 75 bf
       0.03692375197544269 -0.005365024454807814
0006b0 2a b6 cf 1c b5 ef 6b 3f 95 40 56 eb d8 60 9b 3f
       0.003410199866712889 0.026736630786729682
0006c0 38 22 aa f2 67 ae 72 3f b6 4f 3e d8 d4 e6 7a bf
       0.004560857817189894 -0.006567794251072392
0006d0 cc dd b4 1d 2f 10 b2 3f bb fa f0 c8 0d 56 a3 3f
       0.07055944895989014 0.037765913752527656
0006e0 5b c7 00 82 37 44 87 bf f0 e1 f9 08 25 67 85 bf
       -0.011360582022550572 -0.010450639091900776
0006f0 28 14 e8 df a4 10 8e 3f 85 96 7f 5b 83 84 b0 bf
       0.014680183489881385 -0.06452198966834473
000700 b3 58 1d 3b 32 19 53 bf ae 63 22 cf 59 6b 92 3f
       -0.001165675214414058 0.017987635867573175
000710 cf cf 6b c1 15 e2 be 3f 3c f8 78 85 a6 d9 af 3f
       0.12063728306003373 0.062207416337046045
000720 1c 8e 0f d4 17 20 81 bf b9 ee bc 8c 8d 7e a5 bf
       -0.008361993941384198 -0.04198114722245578
000730 89 f7 95 f6 2e fc 8e 3f 50 9f fa 96 45 0e ab 3f
       0.015129439258767767 0.05284326045995036
000740 f9 92 8d 72 29 9c 94 bf b3 1b 2f 9a 26 cb a5 bf
       -0.020126960388910018 -0.04256554252747637
000750 15 4e f4 fd f3 cd a9 3f 69 7b 2a 38 15 ff b2 3f
       0.05039942240741994 0.07420475598563105
000760 5a 13 e9 1f b1 4c 98 bf 14 03 e4 14 12 91 b2 3f
       -0.023730056355151553 0.07252610216165706
000770 8d cc b3 8f 94 c4 aa 3f 71 6e 4b 17 e5 26 b0 bf
       0.05228103880099253 -0.06309348887173784
000780 28 b9 39 98 c5 0c 90 bf 34 97 4b 32 52 c4 ae 3f
       -0.015673720756631898 0.060091560973701524
000790 ce 69 e5 f8 3e 72 97 bf 35 21 3c f8 44 73 ab bf
       -0.02289675134793772 -0.053613810827359755
0007a0 65 a3 8b 06 7c 4d aa bf 79 13 c1 92 c6 6a 9b 3f
       -0.051372409628874384 0.02677450438229154
0007b0 1b d6 7d 8f ed 95 8b 3f 9a 66 15 84 64 99 9e bf
       0.013469558660044225 -0.029882021486037226
0007c0 be b1 70 7f 80 e6 ab bf 37 28 b0 77 a2 ff a6 3f
       -0.054492965275446434 0.044919087515225824
0007d0 47 a0 8c fa 10 85 59 bf d0 94 c2 7a cf 40 a1 bf
       -0.0015576043899248203 -0.033697589621888846
0007e0 4a 79 ac b4 bd e8 9d bf ad d8 65 7b 4f 72 83 3f
       -0.0292081491016856 0.009495373681357522
0007f0 b8 e3 8a 31 55 96 a0 3f fc 0e df c3 a4 42 93 3f
       0.03239694814460087 0.018808912711178558

f.bias f8 [10]
000000 03 b7 d5 61 8f a5 72 bf a6 dc af 28 46 a2 99 3f
       -0.0045524216524037734 0.025033088906607624
000010 ab 45 e2 57 bc 65 5a 3f a9 4d 56 5e 0f 08 35 3f
       0.0016111697473529623 0.00032091498572947103
000020 e0 0f 65 6b 81 50 65 bf f4 d0 3d 5b c6 19 72 3f
       -0.0026018645977803206 0.004419112043127383
000030 84 2e 08 3c 76 7e 74 bf b9 60 71 5b 46 b1 51 bf
       -0.005003415921702396 -0.0010798632699984669
000040 07 43 cf 43 83 c6 89 bf 93 7a c8 8c ce 14 86 bf
       -0.012585664278874654 -0.010781873389587282
